/iopsstor/scratch/cscs/anunay/my_repo/MambaInLlama
teacher_model: LlamaForCausalLM(
  (model): LlamaModel(
    (embed_tokens): Embedding(128256, 4096)
    (layers): ModuleList(
      (0-31): 32 x LlamaDecoderLayer(
        (self_attn): LlamaFlashAttention2(
          (q_proj): Linear(in_features=4096, out_features=4096, bias=False)
          (k_proj): Linear(in_features=4096, out_features=1024, bias=False)
          (v_proj): Linear(in_features=4096, out_features=1024, bias=False)
          (o_proj): Linear(in_features=4096, out_features=4096, bias=False)
          (rotary_emb): LlamaRotaryEmbedding()
        )
        (mlp): LlamaMLP(
          (gate_proj): Linear(in_features=4096, out_features=14336, bias=False)
          (up_proj): Linear(in_features=4096, out_features=14336, bias=False)
          (down_proj): Linear(in_features=14336, out_features=4096, bias=False)
          (act_fn): SiLU()
        )
        (input_layernorm): LlamaRMSNorm()
        (post_attention_layernorm): LlamaRMSNorm()
      )
    )
    (norm): LlamaRMSNorm()
    (rotary_emb): LlamaRotaryEmbedding()
  )
  (lm_head): Linear(in_features=4096, out_features=128256, bias=False)
)
number of total params:8030261248
number of total trainable params:0
student_model: MambaTransformerHybridModelWrapper(
  (model): LlamaForCausalLM(
    (model): LlamaModel(
      (embed_tokens): Embedding(128256, 4096)
      (layers): ModuleList(
        (0): MambaDecoderLayer(
          (mamba): Mamba(
            (in_proj_x): Linear(in_features=4096, out_features=1024, bias=False)
            (in_proj_z): Linear(in_features=4096, out_features=4096, bias=False)
            (conv1d): Conv1d(4096, 4096, kernel_size=(4,), stride=(1,), padding=(3,), groups=4096)
            (act): SiLU()
            (B_proj): Linear(in_features=4096, out_features=1024, bias=False)
            (C_proj): Linear(in_features=4096, out_features=4096, bias=False)
            (dt_proj_down): Linear(in_features=4096, out_features=256, bias=False)
            (dt_proj): Linear(in_features=256, out_features=4096, bias=True)
            (out_proj): Linear(in_features=4096, out_features=4096, bias=False)
          )
          (mlp): MLP(
            (gate_proj): Linear(in_features=4096, out_features=14336, bias=False)
            (up_proj): Linear(in_features=4096, out_features=14336, bias=False)
            (down_proj): Linear(in_features=14336, out_features=4096, bias=False)
            (act_fn): SiLU()
          )
          (input_layernorm): RMSNorm()
          (post_attention_layernorm): RMSNorm()
        )
        (1-3): 3 x LlamaDecoderLayer(
          (self_attn): LlamaFlashAttention2(
            (q_proj): Linear(in_features=4096, out_features=4096, bias=False)
            (k_proj): Linear(in_features=4096, out_features=1024, bias=False)
            (v_proj): Linear(in_features=4096, out_features=1024, bias=False)
            (o_proj): Linear(in_features=4096, out_features=4096, bias=False)
            (rotary_emb): LlamaRotaryEmbedding()
          )
          (mlp): LlamaMLP(
            (gate_proj): Linear(in_features=4096, out_features=14336, bias=False)
            (up_proj): Linear(in_features=4096, out_features=14336, bias=False)
            (down_proj): Linear(in_features=14336, out_features=4096, bias=False)
            (act_fn): SiLU()
          )
          (input_layernorm): LlamaRMSNorm()
          (post_attention_layernorm): LlamaRMSNorm()
        )
        (4): MambaDecoderLayer(
          (mamba): Mamba(
            (in_proj_x): Linear(in_features=4096, out_features=1024, bias=False)
            (in_proj_z): Linear(in_features=4096, out_features=4096, bias=False)
            (conv1d): Conv1d(4096, 4096, kernel_size=(4,), stride=(1,), padding=(3,), groups=4096)
            (act): SiLU()
            (B_proj): Linear(in_features=4096, out_features=1024, bias=False)
            (C_proj): Linear(in_features=4096, out_features=4096, bias=False)
            (dt_proj_down): Linear(in_features=4096, out_features=256, bias=False)
            (dt_proj): Linear(in_features=256, out_features=4096, bias=True)
            (out_proj): Linear(in_features=4096, out_features=4096, bias=False)
          )
          (mlp): MLP(
            (gate_proj): Linear(in_features=4096, out_features=14336, bias=False)
            (up_proj): Linear(in_features=4096, out_features=14336, bias=False)
            (down_proj): Linear(in_features=14336, out_features=4096, bias=False)
            (act_fn): SiLU()
          )
          (input_layernorm): RMSNorm()
          (post_attention_layernorm): RMSNorm()
        )
        (5-7): 3 x LlamaDecoderLayer(
          (self_attn): LlamaFlashAttention2(
            (q_proj): Linear(in_features=4096, out_features=4096, bias=False)
            (k_proj): Linear(in_features=4096, out_features=1024, bias=False)
            (v_proj): Linear(in_features=4096, out_features=1024, bias=False)
            (o_proj): Linear(in_features=4096, out_features=4096, bias=False)
            (rotary_emb): LlamaRotaryEmbedding()
          )
          (mlp): LlamaMLP(
            (gate_proj): Linear(in_features=4096, out_features=14336, bias=False)
            (up_proj): Linear(in_features=4096, out_features=14336, bias=False)
            (down_proj): Linear(in_features=14336, out_features=4096, bias=False)
            (act_fn): SiLU()
          )
          (input_layernorm): LlamaRMSNorm()
          (post_attention_layernorm): LlamaRMSNorm()
        )
        (8): MambaDecoderLayer(
          (mamba): Mamba(
            (in_proj_x): Linear(in_features=4096, out_features=1024, bias=False)
            (in_proj_z): Linear(in_features=4096, out_features=4096, bias=False)
            (conv1d): Conv1d(4096, 4096, kernel_size=(4,), stride=(1,), padding=(3,), groups=4096)
            (act): SiLU()
            (B_proj): Linear(in_features=4096, out_features=1024, bias=False)
            (C_proj): Linear(in_features=4096, out_features=4096, bias=False)
            (dt_proj_down): Linear(in_features=4096, out_features=256, bias=False)
            (dt_proj): Linear(in_features=256, out_features=4096, bias=True)
            (out_proj): Linear(in_features=4096, out_features=4096, bias=False)
          )
          (mlp): MLP(
            (gate_proj): Linear(in_features=4096, out_features=14336, bias=False)
            (up_proj): Linear(in_features=4096, out_features=14336, bias=False)
            (down_proj): Linear(in_features=14336, out_features=4096, bias=False)
            (act_fn): SiLU()
          )
          (input_layernorm): RMSNorm()
          (post_attention_layernorm): RMSNorm()
        )
        (9-11): 3 x LlamaDecoderLayer(
          (self_attn): LlamaFlashAttention2(
            (q_proj): Linear(in_features=4096, out_features=4096, bias=False)
            (k_proj): Linear(in_features=4096, out_features=1024, bias=False)
            (v_proj): Linear(in_features=4096, out_features=1024, bias=False)
            (o_proj): Linear(in_features=4096, out_features=4096, bias=False)
            (rotary_emb): LlamaRotaryEmbedding()
          )
          (mlp): LlamaMLP(
            (gate_proj): Linear(in_features=4096, out_features=14336, bias=False)
            (up_proj): Linear(in_features=4096, out_features=14336, bias=False)
            (down_proj): Linear(in_features=14336, out_features=4096, bias=False)
            (act_fn): SiLU()
          )
          (input_layernorm): LlamaRMSNorm()
          (post_attention_layernorm): LlamaRMSNorm()
        )
        (12): MambaDecoderLayer(
          (mamba): Mamba(
            (in_proj_x): Linear(in_features=4096, out_features=1024, bias=False)
            (in_proj_z): Linear(in_features=4096, out_features=4096, bias=False)
            (conv1d): Conv1d(4096, 4096, kernel_size=(4,), stride=(1,), padding=(3,), groups=4096)
            (act): SiLU()
            (B_proj): Linear(in_features=4096, out_features=1024, bias=False)
            (C_proj): Linear(in_features=4096, out_features=4096, bias=False)
            (dt_proj_down): Linear(in_features=4096, out_features=256, bias=False)
            (dt_proj): Linear(in_features=256, out_features=4096, bias=True)
            (out_proj): Linear(in_features=4096, out_features=4096, bias=False)
          )
          (mlp): MLP(
            (gate_proj): Linear(in_features=4096, out_features=14336, bias=False)
            (up_proj): Linear(in_features=4096, out_features=14336, bias=False)
            (down_proj): Linear(in_features=14336, out_features=4096, bias=False)
            (act_fn): SiLU()
          )
          (input_layernorm): RMSNorm()
          (post_attention_layernorm): RMSNorm()
        )
        (13-15): 3 x LlamaDecoderLayer(
          (self_attn): LlamaFlashAttention2(
            (q_proj): Linear(in_features=4096, out_features=4096, bias=False)
            (k_proj): Linear(in_features=4096, out_features=1024, bias=False)
            (v_proj): Linear(in_features=4096, out_features=1024, bias=False)
            (o_proj): Linear(in_features=4096, out_features=4096, bias=False)
            (rotary_emb): LlamaRotaryEmbedding()
          )
          (mlp): LlamaMLP(
            (gate_proj): Linear(in_features=4096, out_features=14336, bias=False)
            (up_proj): Linear(in_features=4096, out_features=14336, bias=False)
            (down_proj): Linear(in_features=14336, out_features=4096, bias=False)
            (act_fn): SiLU()
          )
          (input_layernorm): LlamaRMSNorm()
          (post_attention_layernorm): LlamaRMSNorm()
        )
        (16): MambaDecoderLayer(
          (mamba): Mamba(
            (in_proj_x): Linear(in_features=4096, out_features=1024, bias=False)
            (in_proj_z): Linear(in_features=4096, out_features=4096, bias=False)
            (conv1d): Conv1d(4096, 4096, kernel_size=(4,), stride=(1,), padding=(3,), groups=4096)
            (act): SiLU()
            (B_proj): Linear(in_features=4096, out_features=1024, bias=False)
            (C_proj): Linear(in_features=4096, out_features=4096, bias=False)
            (dt_proj_down): Linear(in_features=4096, out_features=256, bias=False)
            (dt_proj): Linear(in_features=256, out_features=4096, bias=True)
            (out_proj): Linear(in_features=4096, out_features=4096, bias=False)
          )
          (mlp): MLP(
            (gate_proj): Linear(in_features=4096, out_features=14336, bias=False)
            (up_proj): Linear(in_features=4096, out_features=14336, bias=False)
            (down_proj): Linear(in_features=14336, out_features=4096, bias=False)
            (act_fn): SiLU()
          )
          (input_layernorm): RMSNorm()
          (post_attention_layernorm): RMSNorm()
        )
        (17-19): 3 x LlamaDecoderLayer(
          (self_attn): LlamaFlashAttention2(
            (q_proj): Linear(in_features=4096, out_features=4096, bias=False)
            (k_proj): Linear(in_features=4096, out_features=1024, bias=False)
            (v_proj): Linear(in_features=4096, out_features=1024, bias=False)
            (o_proj): Linear(in_features=4096, out_features=4096, bias=False)
            (rotary_emb): LlamaRotaryEmbedding()
          )
          (mlp): LlamaMLP(
            (gate_proj): Linear(in_features=4096, out_features=14336, bias=False)
            (up_proj): Linear(in_features=4096, out_features=14336, bias=False)
            (down_proj): Linear(in_features=14336, out_features=4096, bias=False)
            (act_fn): SiLU()
          )
          (input_layernorm): LlamaRMSNorm()
          (post_attention_layernorm): LlamaRMSNorm()
        )
        (20): MambaDecoderLayer(
          (mamba): Mamba(
            (in_proj_x): Linear(in_features=4096, out_features=1024, bias=False)
            (in_proj_z): Linear(in_features=4096, out_features=4096, bias=False)
            (conv1d): Conv1d(4096, 4096, kernel_size=(4,), stride=(1,), padding=(3,), groups=4096)
            (act): SiLU()
            (B_proj): Linear(in_features=4096, out_features=1024, bias=False)
            (C_proj): Linear(in_features=4096, out_features=4096, bias=False)
            (dt_proj_down): Linear(in_features=4096, out_features=256, bias=False)
            (dt_proj): Linear(in_features=256, out_features=4096, bias=True)
            (out_proj): Linear(in_features=4096, out_features=4096, bias=False)
          )
          (mlp): MLP(
            (gate_proj): Linear(in_features=4096, out_features=14336, bias=False)
            (up_proj): Linear(in_features=4096, out_features=14336, bias=False)
            (down_proj): Linear(in_features=14336, out_features=4096, bias=False)
            (act_fn): SiLU()
          )
          (input_layernorm): RMSNorm()
          (post_attention_layernorm): RMSNorm()
        )
        (21-23): 3 x LlamaDecoderLayer(
          (self_attn): LlamaFlashAttention2(
            (q_proj): Linear(in_features=4096, out_features=4096, bias=False)
            (k_proj): Linear(in_features=4096, out_features=1024, bias=False)
            (v_proj): Linear(in_features=4096, out_features=1024, bias=False)
            (o_proj): Linear(in_features=4096, out_features=4096, bias=False)
            (rotary_emb): LlamaRotaryEmbedding()
          )
          (mlp): LlamaMLP(
            (gate_proj): Linear(in_features=4096, out_features=14336, bias=False)
            (up_proj): Linear(in_features=4096, out_features=14336, bias=False)
            (down_proj): Linear(in_features=14336, out_features=4096, bias=False)
            (act_fn): SiLU()
          )
          (input_layernorm): LlamaRMSNorm()
          (post_attention_layernorm): LlamaRMSNorm()
        )
        (24): MambaDecoderLayer(
          (mamba): Mamba(
            (in_proj_x): Linear(in_features=4096, out_features=1024, bias=False)
            (in_proj_z): Linear(in_features=4096, out_features=4096, bias=False)
            (conv1d): Conv1d(4096, 4096, kernel_size=(4,), stride=(1,), padding=(3,), groups=4096)
            (act): SiLU()
            (B_proj): Linear(in_features=4096, out_features=1024, bias=False)
            (C_proj): Linear(in_features=4096, out_features=4096, bias=False)
            (dt_proj_down): Linear(in_features=4096, out_features=256, bias=False)
            (dt_proj): Linear(in_features=256, out_features=4096, bias=True)
            (out_proj): Linear(in_features=4096, out_features=4096, bias=False)
          )
          (mlp): MLP(
            (gate_proj): Linear(in_features=4096, out_features=14336, bias=False)
            (up_proj): Linear(in_features=4096, out_features=14336, bias=False)
            (down_proj): Linear(in_features=14336, out_features=4096, bias=False)
            (act_fn): SiLU()
          )
          (input_layernorm): RMSNorm()
          (post_attention_layernorm): RMSNorm()
        )
        (25-27): 3 x LlamaDecoderLayer(
          (self_attn): LlamaFlashAttention2(
            (q_proj): Linear(in_features=4096, out_features=4096, bias=False)
            (k_proj): Linear(in_features=4096, out_features=1024, bias=False)
            (v_proj): Linear(in_features=4096, out_features=1024, bias=False)
            (o_proj): Linear(in_features=4096, out_features=4096, bias=False)
            (rotary_emb): LlamaRotaryEmbedding()
          )
          (mlp): LlamaMLP(
            (gate_proj): Linear(in_features=4096, out_features=14336, bias=False)
            (up_proj): Linear(in_features=4096, out_features=14336, bias=False)
            (down_proj): Linear(in_features=14336, out_features=4096, bias=False)
            (act_fn): SiLU()
          )
          (input_layernorm): LlamaRMSNorm()
          (post_attention_layernorm): LlamaRMSNorm()
        )
        (28): MambaDecoderLayer(
          (mamba): Mamba(
            (in_proj_x): Linear(in_features=4096, out_features=1024, bias=False)
            (in_proj_z): Linear(in_features=4096, out_features=4096, bias=False)
            (conv1d): Conv1d(4096, 4096, kernel_size=(4,), stride=(1,), padding=(3,), groups=4096)
            (act): SiLU()
            (B_proj): Linear(in_features=4096, out_features=1024, bias=False)
            (C_proj): Linear(in_features=4096, out_features=4096, bias=False)
            (dt_proj_down): Linear(in_features=4096, out_features=256, bias=False)
            (dt_proj): Linear(in_features=256, out_features=4096, bias=True)
            (out_proj): Linear(in_features=4096, out_features=4096, bias=False)
          )
          (mlp): MLP(
            (gate_proj): Linear(in_features=4096, out_features=14336, bias=False)
            (up_proj): Linear(in_features=4096, out_features=14336, bias=False)
            (down_proj): Linear(in_features=14336, out_features=4096, bias=False)
            (act_fn): SiLU()
          )
          (input_layernorm): RMSNorm()
          (post_attention_layernorm): RMSNorm()
        )
        (29-31): 3 x LlamaDecoderLayer(
          (self_attn): LlamaFlashAttention2(
            (q_proj): Linear(in_features=4096, out_features=4096, bias=False)
            (k_proj): Linear(in_features=4096, out_features=1024, bias=False)
            (v_proj): Linear(in_features=4096, out_features=1024, bias=False)
            (o_proj): Linear(in_features=4096, out_features=4096, bias=False)
            (rotary_emb): LlamaRotaryEmbedding()
          )
          (mlp): LlamaMLP(
            (gate_proj): Linear(in_features=4096, out_features=14336, bias=False)
            (up_proj): Linear(in_features=4096, out_features=14336, bias=False)
            (down_proj): Linear(in_features=14336, out_features=4096, bias=False)
            (act_fn): SiLU()
          )
          (input_layernorm): LlamaRMSNorm()
          (post_attention_layernorm): LlamaRMSNorm()
        )
      )
      (norm): LlamaRMSNorm()
      (rotary_emb): LlamaRotaryEmbedding()
    )
    (lm_head): Linear(in_features=4096, out_features=128256, bias=False)
  )
)
number of total params:8182009856
number of total trainable params:487292928
length of dataset: 296784
length of dataset:length of dataset:  296784296784

length of dataset: 296784
length of dataloader: 37098
length of dataloader:length of dataloader:  3709837098

length of dataloader: 37098
training loss: 383.44391
training loss: 329.29849
training loss: 351.98096
…
